submissions/jxu/predator_model.pth (torch, 80361 bytes, 6 tensors)

fc1.weight f4 [128, 16]
0.23663948 0.35114953 0.27395937 0.67706084 0.41131166 -0.27338433 -0.49206647 0.037949696
0.877501 0.5415762 -0.37434366 -0.32917517 -0.16343175 -0.6389826 0.21692489 -0.59532803
-0.592571 0.33083877 0.55584174 -0.051637977 -0.12053024 -0.48086354 -0.5706472 -1.0391883
0.5545237 0.16895884 0.11755836 0.09924239 0.6509578 0.6682945 -0.05130573 -0.14724523
0.17426711 0.03826554 -0.128322 -0.5723252 -0.19239017 -0.7771978 0.11861464 -0.089698605
-0.5391418 -0.52572066 -0.68201303 -0.02285569 0.19730842 -0.009671358 0.2906886 -0.37945747
-0.8047902 0.15993674 0.25623736 0.07700267 -4.6873603e-05 0.6822025 0.34977245 -0.31136358
-0.12533043 -0.19083533 -0.18011224 -0.58112925 0.29997122 0.5501039 -0.68087006 -0.61129445
-0.25065038 0.029114475 0.048085764 -0.11289862 -0.098409146 0.037473414 -0.10213314 0.38590834
0.8110324 -0.41879594 -0.28083637 -0.21441865 -0.6572659 -0.33066714 -0.019522713 -0.32252327
0.34065825 0.19248587 0.2948081 0.16851485 -0.31129378 -0.20467998 0.024328541 -0.07682847
0.2561498 0.12888433 0.05693813 0.03030746 0.11095263 0.29305524 -0.029389074 0.19885743
-0.657865 -0.057456203 -0.054267988 -0.24813855 -0.5019908 0.5121162 0.04101137 0.22284858
-0.02327471 -0.10436124 -0.2292231 0.44817382 1.0874614 -1.1720946 0.50444716 -0.58195454
0.02935135 0.32884088 -0.35324278 0.03062982 -0.036971387 0.018791333 -0.24959 0.20975935
0.4247025 -0.10517501 -0.27846187 0.67395306 -0.105553664 -1.3344996 -0.037955493 -0.1778173
0.33435234 0.1759878 -0.25892654 0.09284451 -0.4021233 0.032903377 -0.07108458 0.31801155
0.31390396 -0.4167293 0.27953133 0.012901859 -0.28120205 -0.041275922 -0.40784177 0.24304156
0.5629178 -0.050197825 0.46768072 -0.41501588 -0.61572534 0.25519437 -0.15837209 0.54156613
0.18837081 -0.12624854 -0.11450209 0.037568696 0.40327975 -0.4158017 0.021537252 -0.39468202
0.3292776 0.044026226 0.100661874 -0.1547365 -0.29644397 -0.26085776 -0.44922197 0.43459907
-0.3723021 -0.01721056 0.47043175 -0.0820098 -0.5051847 -0.31148222 -0.2666709 -0.4456184
-0.3318094 -0.09601968 -0.12516665 0.16722052 0.4753396 1.1672137 -0.20629096 0.06392265
-0.47972637 -0.3539043 0.0910651 -0.24126132 0.3392429 0.094661444 -0.15973982 0.0009196125
-0.058867335 0.22139278 0.015872022 0.033330645 -0.33989224 0.07947555 -0.3493053 0.09390506
-0.05082355 -0.22663105 -0.0036407274 -0.044086408 0.56665504 0.27850294 -0.056388143 0.3500999
0.4798471 0.155723 0.36983225 -0.3266677 -0.1782537 -0.5543993 -0.1391362 0.26652265
0.2506671 0.23581307 0.2679523 0.4963868 0.4495423 0.7808305 0.013724837 0.07564399
0.15692373 -0.17445888 -0.10296722 0.048955653 -0.014655557 0.16733292 -0.4074873 0.007371119
0.23383012 -0.41989437 -0.09214017 -0.38409916 -0.008701855 -0.058657676 -0.25980863 -0.28992298
0.028869728 -0.28152394 -0.09783143 -0.07568101 -0.9416724 -0.08525311 0.22554608 -0.31870282
0.44110703 -0.0101978695 0.07135875 -0.22765145 0.77899826 0.04892202 0.16500133 -0.17703062
00000000: 9f51 723e dfc9 b33e 6744 8c3e dc53 2d3f
00000010: 7197 d23e 08f9 8bbe 23f0 fbbe 2471 1b3d
00000020: e8a3 603f bda4 0a3f f9a9 bfbe a689 a8be
00000030: a75a 27be 5d94 23bf 8f21 5e3e 6b67 18bf
00000040: bcb2 17bf b363 a93e a54b 0e3f 5882 53bd
00000050: 8fd8 f6bd bf33 f6be ef15 12bf 1f04 85bf
00000060: 44f5 0d3f 8c03 2d3e 70c2 f03d 983f cb3d
00000070: 2ca5 263f 5915 2b3f f525 52bd 74c7 16be
00000080: 1473 323e 54bc 1c3d d866 03be e883 12bf
00000090: ee01 45be 6ff6 46bf 3bec f23d e7b3 b7bd
000000a0: 3205 0abf a195 06bf 6898 2ebf db3b bbbc
000000b0: 380b 4a3e 9e74 1ebc 23d5 943e 4048 c2be
000000c0: bb06 4ebf 75c6 233e 8b31 833e 93b3 9d3d
000000d0: 269a 44b8 d3a4 2e3f 6015 b33e 0c6b 9fbe
000000e0: 9f56 00be 566a 43be 586f 38be e3c4 14bf
000000f0: d495 993e 9cd3 0c3f 804d 2ebf cb7d 1cbf
00000100: 3f55 80be 7b81 ee3c 94f5 443d 6437 e7bd
00000110: bc8a c9bd b97d 193d 2e2b d1bd c795 c53e
00000120: d29f 4f3f 6c6c d6be c9c9 8fbe 9090 5bbe
00000130: 9442 28bf 344d a9be 19ee 9fbc c521 a5be
00000140: c26a ae3e 041b 453e 16f1 963e 288f 2c3e
00000150: e661 9fbe a197 51be a64c c73c 3f58 9dbd
00000160: 1126 833e 41fa 033e f537 693d 5a47 f83c
00000170: 223b e33d 560b 963e 5bc1 f0bc 48a1 4b3e
00000180: d769 28bf 3257 6bbd 1c48 5ebd 0818 7ebe
00000190: 7882 00bf 0c1a 033f 8afb 273d 6b32 643e
000001a0: 9baa bebc 59bb d5bd 76b9 6abe 0a77 e53e
000001b0: ef31 8b3f 3207 96bf 7323 013f f9fa 14bf
000001c0: 3e72 f03c d55d a83e 3ddc b4be 63eb fa3c
000001d0: 4f6f 17bd 48f0 993c 8594 7fbe 28cb 563e
000001e0: 9b72 d93e ff65 d7bd 8e92 8ebe 3088 2c3f
000001f0: 852c d8bd e2d0 aabf 3877 1bbd bd15 36be
00000200: 3b30 ab3e 2536 343e 0592 84be 4325 be3d
00000210: 1be3 cdbe b1c5 063d cb94 91bd 69d2 a23e
00000220: 05b8 a03e 8b5d d5be bb1e 8f3e 5262 533c
00000230: b7f9 8fbe f110 29bd a3d0 d0be e3df 783e
00000240: 621b 103f 3c9c 4dbd d973 ef3e f67c d4be
00000250: 2da0 1dbf d6a8 823e 4b2c 22be 14a4 0a3f
00000260: 47e4 403e 4c47 01be 1280 eabd a2e1 193d
00000270: af7a ce3e f6e3 d4be e46e b03c c313 cabe
00000280: 1397 a83e d854 343d d027 ce3d 3f73 1ebe
00000290: 81c7 97be 268f 85be 6c00 e6be c583 de3e
000002a0: 619e bebe 29fd 8cbc 6edc f03e c1f4 a7bd
000002b0: c953 01bf 997a 9fbe 1789 88be 1828 e4be
000002c0: ece2 a9be f7a5 c4bd b02b 00be db3b 2b3e
000002d0: b65f f33e 4267 953f f03d 53be e1e9 823d
000002e0: b29e f5be f232 b5be 5780 ba3d 350d 77be
000002f0: 3fb1 ad3e dcdd c13d d692 23be 2612 713a
00000300: e01e 71bd cab4 623e 0b06 823c b785 083d
00000310: 5b06 aebe 14c4 a23d 25d8 b2be 4c51 c03d
00000320: 5b2c 50bd f811 68be 4599 6ebb f393 34bd
00000330: 4e10 113f f097 8e3e 41f7 66bd 4b40 b33e
00000340: 85ae f53e da75 1f3e a75a bd3e fd40 a7be
00000350: 2388 36be 1ded 0dbf b879 0ebe a875 883e
00000360: 7057 803e fb78 713e 0b31 893e 6926 fe3e
00000370: 692a e63e 82e4 473f 24de 603c 3ceb 9a3d
00000380: 9db0 203e 59a5 32be 7ae0 d2bd b985 483d
00000390: dd1d 70bc 5259 2b3e 2da2 d0be 6e89 f13b
000003a0: 2a71 6f3e 65fc d6be fcb3 bcbd a5a8 c4be
000003b0: 3a92 0ebc 0843 70bd a305 85be c970 94be
000003c0: 3580 ec3c e823 90be d85b c8bd a5fe 9abd
000003d0: 7111 71bf 2f99 aebd 8df5 663e 042d a3be
000003e0: c8d8 e13e f714 27bc 8924 923d 761d 69be
000003f0: 6e6c 473f 7562 483d 1cf6 283e 8447 35be

fc1.bias f4 [128]
-0.24154273 0.053378224 0.29192302 0.07648509 0.35037684 0.9940556 0.14145924 -0.31437314
0.5873657 0.38010246 0.20436822 0.13237011 0.64887726 0.32587403 0.40686545 0.2970693
-0.023509424 0.22118539 0.4899844 0.65617293 -0.5435518 0.7329478 0.4204028 -0.007571944
-0.18596342 0.4736195 -0.021603419 0.4392528 -0.17569807 -0.29900882 0.005253614 -0.18048593
0.4773066 0.36027762 -0.6626838 0.6596625 0.15089916 0.030746255 0.17451407 0.22879879
1.1013191 -0.035387777 -0.31419814 1.0440736 -0.50556505 0.8138204 0.5591642 -0.09266859
0.19256124 -0.250792 -0.24253316 0.12126497 -0.5203634 -0.35107088 -0.25125054 0.004194108
0.44565043 0.24037033 0.42840174 0.73978126 1.2157841 -0.55045265 0.058616202 0.5841649
0.099967316 0.13000716 0.124654256 -0.40766606 0.27129787 -0.119640015 0.61406124 1.0093142
0.15645 0.6696239 0.061975233 0.92941815 -0.12497367 0.19779907 0.056277297 0.39346385
0.2505477 -0.47041276 -0.27693933 0.6878492 0.5450511 0.6688526 1.0793716 0.51367605
-0.74376124 0.7061963 0.30040726 0.77649134 -0.38177395 0.008884478 0.6227471 0.541761
0.13250037 -0.034639865 0.39728045 -0.0681813 0.28746623 0.34579024 0.08750282 -0.29634583
0.044341747 0.07080941 0.71230346 0.18031852 -0.06858078 -0.36515513 0.1727634 0.4055321
0.94590724 -0.25309774 0.58754385 0.082564466 -0.76556784 0.059567414 0.53385305 0.8854412
1.1014196 0.9302483 0.701583 -0.2346089 -0.032034665 -0.003342881 -0.009659363 0.650511
00000000: fa56 77be 20a3 5a3d ef76 953e 37a4 9c3d
00000010: 9864 b33e 6e7a 7e3f b1da 103e 84f5 a0be
00000020: 995d 163f ca9c c23e e745 513e 088c 073e
00000030: d21c 263f f6d8 a63e ab50 d03e 7819 983e
00000040: d696 c0bc 6c7e 623e 3cdf fa3e f3fa 273f
00000050: 3626 0bbf 78a2 3b3f 093f d73e 121e f8bb
00000060: 326d 3ebe 417e f23e a7f9 b0bc bee5 e03e
00000070: 32ea 33be af17 99be 8226 ac3b 4ed1 38be
00000080: 8861 f43e 4f76 b83e a5a5 29bf a4df 283f
00000090: 4f85 1a3e 92df fb3c d1b3 323e 3b4a 6a3e
000000a0: 06f8 8c3f c6f2 10bd 94de a0be 34a4 853f
000000b0: b66c 01bf 8956 503f 6325 0f3f 08c9 bdbd
000000c0: c62e 453e cf67 80be 9d5a 78be c559 f83d
000000d0: 8936 05bf 90bf b3be e9a3 80be ba6e 893b
000000e0: 4b2c e43e a423 763e 7957 db3e 4e62 3d3f
000000f0: d09e 9b3f 77ea 0cbf 8b17 703d d58b 153f
00000100: aabb cc3d 9920 053e bb4a ff3d 9bb9 d0be
00000110: 8ee7 8a3e d305 f5bd 1e33 1d3f 3531 813f
00000120: 6e34 203e 796c 2b3f bed9 7d3d 59ee 6d3f
00000130: 32f2 ffbd d78b 4a3e 0683 663d 1874 c93e
00000140: ca47 803e f1d9 f0be feca 8dbe e316 303f
00000150: 7888 0b3f ed39 2b3f d928 8a3f 4680 033f
00000160: 2367 3ebf 48c9 343f fbce 993e 23c8 463f
00000170: e077 c3be 3490 113c 5b6c 1f3f d9b0 0a3f
00000180: 2dae 073e 88e2 0dbd 5868 cb3e a3a2 8bbd
00000190: c62e 933e 6b0b b13e ae34 b33d a4ba 97be
000001a0: b19f 353d 8604 913d 8559 363f 6ba5 383e
000001b0: 1474 8cbd 9df5 babe e4e8 303e e7a1 cf3e
000001c0: fa26 723f 0796 81be 4669 163f 8f17 a93d
000001d0: 41fc 43bf f6fc 733d 98aa 083f 46ac 623f
000001e0: 51fb 8c3f c124 6e3f f29a 333f 513d 70be
000001f0: c836 03bd 3d14 5bbb 4e42 1ebc e487 263f

fc2.weight f4 [128, 128]
-0.8726259 0.6113117 -0.16310194 0.42187434 -0.61359334 0.03691212 0.3279528 0.2973541
0.05057155 0.15542196 -0.32634765 -0.47665295 0.12770851 0.22067466 -0.71194136 -0.11736671
-0.025131414 -0.012665635 -0.10985931 0.003684284 -0.85674244 0.036374614 -0.7235745 0.13578379
0.010625738 -0.25889337 -0.6333824 0.3104871 -0.07452504 0.05737959 0.16309069 -0.13730294
0.50291705 0.03484603 -0.14460444 -0.5351814 -0.12776619 -0.96291214 -0.4358394 0.018033301
0.18550023 -0.060239617 0.07903437 0.6238113 -0.014088187 0.16602884 -0.13495968 -0.09525017
0.08899554 0.20830677 -0.03407737 -0.16185561 -0.8381685 0.12684977 -0.17197607 -0.42502502
0.4661952 0.07482129 -0.12419951 -0.46517017 0.40917292 -0.16586359 0.2234493 0.6572309
0.09997701 -0.022086915 -0.5027381 -0.59788394 0.08049078 -0.1671763 -0.087249584 0.3775248
-0.004640584 -0.21290146 0.25258192 0.3078276 0.24152996 0.22583464 -0.86506635 -1.287605
0.12885797 -0.07212648 0.1775305 -0.22657634 0.44112659 0.6651173 0.38043255 -0.7004729
-0.10754489 -0.6270853 0.42934692 0.22097176 -0.02514591 -0.31265602 -0.18080412 0.91317886
-0.29653013 0.048599247 0.0016530587 -0.1392362 -0.02561178 0.20219442 -0.6612503 0.19459802
0.13201132 0.47784817 -0.55645734 -0.23855498 0.111933924 0.56687486 -0.09159425 -0.3614926
-0.098160386 -0.10301596 -0.26148668 -0.39357772 -0.23757376 0.21775529 -0.75685155 -0.30323797
0.09756379 0.06621817 -0.10451622 0.10190388 -0.18341602 0.24075517 0.4098305 -0.3669585
-0.025857734 -0.015478531 -0.014145252 -0.061621547 -0.11497796 -0.089615405 0.015884276 -0.01484496
-0.012791501 -0.082692 0.02091694 -0.07606603 -0.0706216 0.011001196 0.05122891 0.016149713
0.0067205913 -0.093939364 0.04456306 0.044179823 0.0130976075 -0.04073933 -0.010085405 0.06486267
-0.08919742 0.055479575 0.014981384 -0.054121785 -0.07492473 -0.045866203 -0.07953323 0.073461264
-0.11130519 -0.08660587 -0.08789908 -0.06474722 0.0035711445 -0.105649635 -0.031824272 0.021544635
-0.1092121 -0.029389825 -0.09479347 -0.030859247 0.04935955 -0.032164175 0.013819713 -0.03793342
-0.03742661 0.0032789405 -0.07715483 -0.09328271 0.040654797 0.007855145 -0.02139177 -0.09701213
-0.01679854 -0.06563387 -0.073423706 -0.05797295 0.034109086 -0.0044064317 -0.03322789 0.04801585
0.0877386 -0.08339318 -0.11242921 0.05868815 -0.055035014 0.021915823 -0.03221924 -0.06794272
-0.0058057387 0.020120945 0.0013629945 -0.073752046 -0.075764954 -0.10167477 -0.059798226 0.009415538
-0.09577398 -0.053895723 0.025030592 -0.033651482 0.055927485 0.024333347 0.05856347 -0.053900324
-0.07155581 -0.04850198 0.009782178 -0.053593576 -0.086482815 -0.044484586 -0.073472485 -0.07781122
-0.07878887 0.06800593 -0.08321975 -0.04822319 0.024993554 -0.09723055 0.018562915 0.02669376
-0.0606656 -0.03479258 -0.09785852 0.007702824 -0.07515247 0.0972601 0.014407373 0.025392365
-0.0023929863 -0.08035208 -0.05841751 -0.036470342 0.0378459 0.0527079 0.04780026 0.028105052
0.007330873 -0.113820426 -0.0074545243 0.041578382 -0.058430713 0.011525271 -0.09685468 -0.112871505
00000000: 6964 5fbf ec7e 1c3f 3204 27be eaff d73e
00000010: 7414 1dbf 2a31 173d 6ee9 a73e cc3e 983e
00000020: 1d24 4f3d ef26 1f3e 0a17 a7be db0b f4be
00000030: 05c6 023e 8af8 613e ca41 36bf f55d f0bd
00000040: 65e0 cdbc 8683 4fbc ebfd e0bd 0774 713b
00000050: 7953 5bbf 8cfd 143d 2e3c 39bf e80a 0b3e
00000060: 9317 2e3c ac8d 84be 5925 22bf 2af8 9e3e
00000070: 96a0 98bd dc06 6b3d 3f01 273e 2499 0cbe
00000080: 2cbf 003f b6ba 0e3d 3013 14be a601 09bf
00000090: 24d5 02be 6981 76bf 5826 dfbe 93ba 933c
000000a0: c6f3 3d3e d1bd 76bd c6dc a13d 19b2 1f3f
000000b0: 24d2 66bc 7703 2a3e df32 0abe 8512 c3bd
000000c0: 4b43 b63d 5f4e 553e b694 0bbd 7abd 25be
000000d0: 3692 56bf e8e4 013e 7f1a 30be e19c d9be
000000e0: 23b1 ee3e e83b 993d 505c febd c92a eebe
000000f0: 1d7f d13e 25d8 29be e5cf 643e 4940 283f
00000100: bfc0 cc3d 9eef b4bc 72b3 00bf ec0e 19bf
00000110: 5ad8 a43d 4430 2bbe e9af b2bd ee4a c13e
00000120: 0a10 98bb d702 5abe 6b52 813e 949b 9d3e
00000130: a153 773e 3241 673e fd74 5dbf 3ed0 a4bf
00000140: 58f3 033e 0cb7 93bd 8eca 353e a103 68be
00000150: 58db e13e 2145 2a3f 0ec8 c23e 3152 33bf
00000160: 7f40 dcbd aa88 20bf 5cd3 db3e 6c46 623e
00000170: ccfe cdbc 7314 a0be b724 39be 17c6 693f
00000180: ccd2 97be 0110 473d 72ab d83a ef93 0ebe
00000190: cccf d1bc 0e0c 4f3e b347 29bf b444 473e
000001a0: fa2d 073e 84a8 f43e fd73 0ebf c247 74be
000001b0: 9d3d e53d b61e 113f c495 bbbd 8f15 b9be
000001c0: 5008 c9bd 08fa d2bd 95e1 85be 0583 c9be
000001d0: 8946 73be 3efb 5e3e 06c1 41bf 0242 9bbe
000001e0: 86cf c73d 649d 873d 9a0c d6bd fbb2 d03d
000001f0: 69d1 3bbe 8688 763e 4ed5 d13e fce1 bbbe
00000200: 99d3 d3bc aa99 7dbc 7dc1 67bc e066 7cbd
00000210: 9179 ebbd 4888 b7bd be1f 823c 4638 73bc
00000220: 7293 51bc 6c5a a9bd 015a ab3c 82c8 9bbd
00000230: 0fa2 90bd 5c3e 343c 68d5 513d 674c 843c
00000240: 6838 dc3b 4863 c0bd c187 363d e7f5 343d
00000250: 5997 563c 49de 26bd 413d 25bc b8d6 843d
00000260: 23ad b6bd 8d3e 633d 7b74 753c ceae 5dbd
00000270: 2372 99bd 33de 3bbd 51e2 a2bd dc72 963d
00000280: faf3 e3bd 6b5e b1bd 6f04 b4bd 319a 84bd
00000290: dd09 6a3b d65e d8bd 2b5a 02bd 607e b03c
000002a0: 98aa dfbd eec2 f0bc 1423 c2bd 88cc fcbc
000002b0: 3d2d 4a3d 95be 03bd 146c 623c 1360 1bbd
000002c0: a54c 19bd 7ee3 563b 5a03 9ebd 010b bfbd
000002d0: a585 263d deb2 003c cb3d afbc 4cae c6bd
000002e0: 179d 89bc 0d6b 86bd 2b5f 96bd 0b75 6dbd
000002f0: f8b5 0b3d d463 90bb f819 08bd 45ac 443d
00000300: 4cb0 b33d 0bca aabd 4941 e6bd fc62 703d
00000310: 656c 61bd d088 b33c 52f8 03bd 8e25 8bbd
00000320: 113e bebb aed4 a43c 82a6 b23a 500b 97bd
00000330: a82a 9bbd dd3a d0bd fcee 74bd a143 1a3c
00000340: 2625 c4bd c3c1 5cbd f50c cd3c 23d6 09bd
00000350: 3814 653d ba56 c73c 40e0 6f3d 96c6 5cbd
00000360: da8b 92bd 03aa 46bd 6e45 203c f084 5bbd
00000370: e71d b1bd 7835 36bd be78 96bd 7d5b 9fbd
00000380: 0f5c a1bd b146 8b3d 1e6f aabd ae85 45bd
00000390: 48bf cc3c d020 c7bd 4111 983c dfac da3c
000003a0: 7e7c 78bd aa82 0ebd 0c6a c8bd f967 fc3b
000003b0: 8ae9 99bd 4e30 c73d e70c 6c3c a603 d03c
000003c0: a6d3 1cbb a28f a4bd 3347 6fbd ed61 15bd
000003d0: 4d04 1b3d 3de4 573d 35ca 433d 913c e63c
000003e0: d237 f03b af1a e9bd 1545 f4bb 184e 2a3d
000003f0: 0b55 6fbd 7ed4 3c3c bf5b c6bd 2d29 e7bd

fc2.bias f4 [128]
0.07950161 -0.07033759 0.13917717 -0.093157485 0.6408996 0.08055236 0.20113803 -0.27496254
0.3478552 0.044222508 0.059159216 0.5134871 0.019179916 0.27629006 -0.035718065 -0.080152445
0.023957111 1.086715 0.22247216 -0.36652118 0.33575526 -0.19557174 0.39104953 1.0401586
0.3823188 0.7041375 -0.12441357 -0.06009341 -0.088424996 0.442877 0.43192238 0.21796855
0.26596776 0.1267712 1.1801432 0.7255938 0.29781625 0.81393015 0.041917745 0.25080657
0.21702698 0.37578714 -0.023173777 0.3179427 0.090578385 0.28683496 0.058445673 0.6091779
1.234261 1.0626684 0.73642266 0.33028948 -0.0277611 0.41598752 -0.008564851 0.6177627
1.0389055 1.3071022 0.37423202 0.6031122 0.15580799 0.22227976 0.4302628 -0.06881238
0.74466103 0.28996667 0.21337484 0.61255294 0.42742127 -0.056059215 0.3000275 1.3733386
-0.23716961 0.6497237 -0.040590163 0.38953418 0.2710942 0.8170231 0.5087716 0.21781065
0.79572946 0.3891344 0.016963143 0.6035351 0.14825049 1.0189834 0.40392968 -0.010374589
0.73429704 0.6887881 -0.29377726 0.3923846 0.41946387 0.45495817 0.5854735 0.50340116
0.48199165 0.6245297 0.8372748 0.10183993 -0.08173227 0.13767421 0.5078422 0.5063344
0.12999837 0.20182319 0.41064999 0.2928342 0.80548584 0.34317362 0.4305104 0.18928608
-0.06873089 0.036218654 -0.06123913 0.7241565 -0.34696347 0.98112565 1.3123717 -0.066671275
0.23942345 0.6506811 1.2400956 -0.040874526 0.58412063 -0.054512326 0.54827213 -0.112928346
00000000: bdd1 a23d 280d 90bd 7684 0e3e 5ac9 bebd
00000010: ff11 243f a3f8 a43d 21f7 4d3e e4c7 8cbe
00000020: 141a b23e a922 353d ef50 723d e473 033f
00000030: 331f 9d3c e475 8d3e 1b4d 12bd f726 a4bd
00000040: b441 c43c 7a19 8b3f becf 633e aaa8 bbbe
00000050: 1de8 ab3e f543 48be a537 c83e eb23 853f
00000060: 4abf c33e 5b42 343f 8bcc febd 8224 76bd
00000070: 2a18 b5bd c6c0 e23e ee24 dd3e 2633 5f3e
00000080: ed2c 883e 4fd0 013e ef0e 973f 84c0 393f
00000090: 5f7b 983e ba5d 503f f1b1 2b3d b869 803e
000000a0: 523c 5e3e 2c67 c03e efd6 bdbc 63c9 a23e
000000b0: 2981 b93d 08dc 923e bb64 6f3d 15f3 1b3f
000000c0: 44fc 9d3f 8505 883f 3286 3c3f b41b a93e
000000d0: 3f6b e3bc 51fc d43e 9753 0cbc b225 1e3f
000000e0: dbfa 843f 204f a73f 579b bf3e 9065 1a3f
000000f0: 218c 1f3e 4e9d 633e 684b dc3e 81ed 8cbd
00000100: 1ba2 3e3f 8376 943e ef7e 5a3e 45d0 1c3f
00000110: f6d6 da3e 599e 65bd 349d 993e 8fc9 af3f
00000120: 97dc 72be 4b54 263f df41 26bd 0671 c73e
00000130: dccc 8a3e 6d28 513f db3e 023f c109 5f3e
00000140: edb4 4b3f a03c c73e 4af6 8a3c 4781 1a3f
00000150: face 173e 0c6e 823f dfcf ce3e 2efa 29bc
00000160: e4fa 3b3f 6b54 303f f969 96be a2e6 c83e
00000170: f8c3 d63e 47f0 e83e 97e1 153f e6de 003f
00000180: 9cc7 f63e 2ee1 1f3f a457 563f 7491 d03d
00000190: 4063 a7bd 78fa 0c3e f201 023f 229f 013f
000001a0: 4b1e 053e bdaa 4e3e b740 d23e 5dee 953e
000001b0: 5234 4e3f 74b4 af3e dc6b dc3e 36d4 413e
000001c0: c8c2 8cbd 035a 143d e2d5 7abd 5262 393f
000001d0: 32a5 b1be 0d2b 7b3f ccfb a73f f38a 88bd
000001e0: 6c2b 753e 0993 263f 74bb 9e3f 0c6c 27bd
000001f0: ee88 153f 5148 5fbd 905b 0c3f fa46 e7bd

fc3.weight f4 [5, 128]
-0.5406237 0.053071715 1.17998 -0.048140246 0.664566 0.12152416 -0.35618997 -0.09207432
1.3686302 -0.1911421 0.0064016776 1.55334 -0.06766696 -0.48681507 0.40480563 0.95627755
0.68330127 0.29953605 -0.49558467 -0.5124658 0.6820984 0.5312268 0.65735984 1.1798288
0.1978972 1.071905 -0.01264978 -0.46300912 0.45470366 0.5251192 0.69981647 0.8977734
-0.7274788 -0.033900082 0.34891742 0.52332884 0.004367741 0.017876731 -0.8115278 1.2018775
-0.77515936 1.0561292 0.009470036 1.77787 -0.34488785 0.30838144 -0.026044382 1.1437218
0.5093463 0.7132671 0.5828435 1.3571599 0.06298347 1.4573666 0.6745175 0.7179404
0.5655324 0.39975673 0.621728 1.2624546 0.8135726 0.09599614 1.5114648 -0.24722409
0.6193828 1.2407526 0.69359046 0.766856 0.9608174 0.8556449 1.7484224 0.42661938
-0.278151 0.06554347 -0.028681198 1.4156142 0.87667835 0.47273633 0.91308767 0.116996005
0.45169994 0.9471603 -0.037656277 1.661561 -0.0056971163 0.32988915 0.06068443 -0.031904683
0.84999377 0.48879325 -0.15282688 0.40195686 0.15887773 0.80589163 0.6174873 0.67326266
0.85670805 0.49117336 1.1289681 -1.0131418 -0.028660372 0.64290994 1.0407723 1.8574743
-0.5835763 0.76204705 0.7942832 0.98723125 0.69712543 1.0506023 1.0550755 0.2375993
-0.20715937 -0.5581753 -0.19838153 0.8312678 -0.08413826 2.0904865 0.37852794 -0.036799032
0.85034215 0.4562032 0.53023064 0.50455683 1.3513684 0.42748314 0.6217659 0.049361665
-0.9716205 0.08415271 0.7942226 -0.015854875 0.56220037 -0.30718195 0.09842903 0.11496707
1.8268917 0.2384988 -0.057633355 1.5809879 -0.0052023046 0.21374549 0.51432425 1.2872076
0.36853102 0.36487636 0.28215128 -0.47347692 0.58566195 0.32918116 0.70721054 1.1243773
0.9221405 1.7190734 0.010508603 -0.9020914 0.522487 0.62937605 0.5436177 0.15951948
-1.035523 0.91360843 0.2839296 0.38929662 -0.17135409 0.1499895 -0.692496 1.4283465
-0.61856765 1.5395321 0.05171535 1.7352289 -0.117830895 0.026997011 -0.013875393 0.71983474
0.47316173 0.7602093 0.37368745 1.5761901 -0.050653975 1.4541863 0.47926474 0.5043772
0.5354059 0.35494083 0.8034033 1.8677287 1.3611104 -0.0266084 1.5036583 -0.43905404
0.6446759 1.5233748 1.2048291 0.47673196 0.8531048 0.66630495 1.0030545 0.41472122
-0.65503705 0.0119321775 0.03863083 1.632369 0.42563185 0.5634942 1.2030673 0.64381397
0.3720865 1.0130947 -0.02496628 1.4467827 -0.66040367 0.348175 -0.0061900956 0.010836829
0.98987114 0.51063406 0.18835418 0.2539555 0.64647955 0.7421062 0.5351191 0.67658097
0.5304861 0.624222 1.6413903 -0.93481266 0.089148045 0.600081 1.0497245 1.9806836
-0.32569703 1.3822964 0.7974532 0.8622937 0.759954 0.40453753 1.2212256 0.5559622
-0.23837093 -0.2866192 -0.8536387 0.79609907 -0.8611245 1.9316417 0.4254858 -0.016540404
0.7915674 0.4562531 0.4776478 0.34604123 1.4265727 0.32272434 0.8832804 0.042230196
00000000: 5166 0abf ba61 593d 9609 973f b52e 45bd
00000010: ff20 2a3f a9e1 f83d 885e b6be 7691 bcbd
00000020: 462f af3f c1ba 43be 2ac5 d13b d8d3 c63f
00000030: fa94 8abd d33f f9be af42 cf3e 9bce 743f
00000040: d5ec 2e3f ca5c 993e 46bd fdbe f530 03bf
00000050: 009e 2e3f 7bfe 073f bc48 283f a104 973f
00000060: 90a5 4a3e 2f34 893f 0641 4fbc 880f edbe
00000070: ebce e83e 366e 063f 2c27 333f 7ad4 653f
00000080: 0d3c 3abf d0da 0abd 4ea5 b23e e1f8 053f
00000090: 441f 8f3b 3972 923c 49c0 4fbf 1fd7 993f
000000a0: d870 46bf 3e2f 873f 3628 1b3c 3f91 e33f
000000b0: 2495 b0be 2ce4 9d3e 075b d5bc 7a65 923f
000000c0: 8564 023f ac98 363f 3b35 153f 6ab7 ad3f
000000d0: 7afd 803d fd8a ba3f 2ead 2c3f f1ca 373f
000000e0: bbc6 103f eaac cc3e 9129 1f3f 1d98 a13f
000000f0: 4b46 503f a099 c43d ae77 c13f 5028 7dbe
00000100: df8f 1e3f fbd0 9e3f 258f 313f ad50 443f
00000110: 21f8 753f 8b0b 5b3f 4ecc df3f db6d da3e
00000120: cf69 8ebe a83b 863d d5f4 eabc d932 b53f
00000130: fe6d 603f 7f0a f23e 1dc0 693f 9a9b ef3d
00000140: 3745 e73e 1979 723f 783d 1abd 08ae d43f
00000150: e0ae babb 3be7 a83e 3d90 783d 7cae 02bd
00000160: 3199 593f 1c43 fa3e a67e 1cbe 4acd cd3e
00000170: d8b0 223e ea4e 4e3f a613 1e3f f15a 2c3f
00000180: 3851 5b3f 137b fb3e 0782 903f a1ae 81bf
00000190: 28c9 eabc bf95 243f 0738 853f b8c1 ed3f
000001a0: 4265 15bf 8415 433f 2556 4b3f 30bb 7c3f
000001b0: d076 323f 237a 863f b70c 873f 3b4d 733e
000001c0: 9621 54be 94e4 0ebf 8724 4bbe f7cd 543f
000001d0: ae50 acbd 88ca 0540 6ace c13e 95ba 16bd
000001e0: 06b0 593f 7793 e93e 32bd 073f a32a 013f
000001f0: a4f9 ac3f 12df da3e 0d2c 1f3f 752f 4a3d
00000200: 1fbc 78bf 4258 ac3d 2c52 4b3f 15e2 81bc
00000210: 5dec 0f3f f446 9dbe 2995 c93d db73 eb3d
00000220: 96d7 e93f 0839 743e f410 6cbd d05d ca3f
00000230: 1878 aabb 19e0 5a3e c1aa 033f 38c3 a43f
00000240: 19b0 bc3e 13d1 ba3e 2276 903e 916b f2be
00000250: f1ed 153f 6f8a a83e c00b 353f 98eb 8f3f
00000260: 6611 6c3f 990a dc3f 472c 2c3c 76ef 66bf
00000270: b5c1 053f ca1e 213f 882a 0b3f 1359 233e
00000280: 058c 84bf 3ee2 693f 385f 913e e351 c73e
00000290: 7277 2fbe d996 193e 6b47 31bf 0fd4 b63f
000002a0: 735a 1ebf 630f c53f 7ad3 533d fb1b de3f
000002b0: 5351 f1bd d628 dd3c 9e55 63bc 1747 383f
000002c0: 4142 f23e 149d 423f f653 bf3e 99c0 c93f
000002d0: 8b7a 4fbd c722 ba3f 3062 f53e dd1e 013f
000002e0: 5c10 093f ceba b53e d7ab 4d3f bc11 ef3f
000002f0: de38 ae3f dcf9 d9bc e077 c03f b1cb e0be
00000300: 7b09 253f f2fd c23f d737 9a3f 3616 f43e
00000310: 1465 5a3f f692 2a3f 1764 803f 5756 d43e
00000320: 82b0 27bf 2e7f 433c 5c3b 1e3d 78f1 d03f
00000330: 6bec d93e 2841 103f 1cfe 993f fed0 243f
00000340: 1f82 be3e 16ad 813f 1686 ccbc 2d30 b93f
00000350: 3710 29bf fe43 b23e 49d6 cabb f58c 313c
00000360: 3268 7d3f eab8 023f ebdf 403e 7506 823e
00000370: af7f 253f acfa 3d3f 91fd 083f 6934 2d3f
00000380: f0cd 073f 03cd 1f3f 1419 d23f e24f 6fbf
00000390: 4093 b63d e99e 193f 5f5d 863f 0a87 fd3f
000003a0: c3c1 a6be 17ef b03f e525 4c3f 48bf 5c3f
000003b0: 588c 423f 8b1f cf3e 1f51 9c3f 8a53 0e3f
000003c0: 8217 74be c0bf 92be 1188 5abf 26cd 4b3f
000003d0: a872 5cbf 0940 f73f 46d9 d93e be7f 87bc
000003e0: 29a4 4a3f 029a e93e 418e f43e 512c b13e
000003f0: ef99 b63f 203c a53e aa1e 623f 92f9 2c3d

fc3.bias f4 [5]
0.4126226 0.7207432 1.261063 0.77550685 0.69968086
00000000: 4543 d33e a082 383f 836a a13f 9e87 463f
00000010: 491e 333f
